2022-07-13 21:29:41,582 - ===> loading train, validation and eval dataset
2022-07-13 21:29:41,962 - ### Model summary below###
 CDCK2(
  (encoder): Sequential(
    (0): Conv1d(1, 512, kernel_size=(8,), stride=(4,), padding=(3,), bias=False)
    (1): BatchNorm1d(512, eps=1e-05, momentum=0.1, affine=True, track_running_stats=True)
    (2): ReLU(inplace=True)
    (3): Conv1d(512, 512, kernel_size=(8,), stride=(4,), padding=(2,), bias=False)
    (4): BatchNorm1d(512, eps=1e-05, momentum=0.1, affine=True, track_running_stats=True)
    (5): ReLU(inplace=True)
    (6): Conv1d(512, 512, kernel_size=(4,), stride=(2,), padding=(1,), bias=False)
    (7): BatchNorm1d(512, eps=1e-05, momentum=0.1, affine=True, track_running_stats=True)
    (8): ReLU(inplace=True)
    (9): Conv1d(512, 512, kernel_size=(4,), stride=(2,), padding=(1,), bias=False)
    (10): BatchNorm1d(512, eps=1e-05, momentum=0.1, affine=True, track_running_stats=True)
    (11): ReLU(inplace=True)
    (12): Conv1d(512, 512, kernel_size=(4,), stride=(2,), padding=(1,), bias=False)
    (13): BatchNorm1d(512, eps=1e-05, momentum=0.1, affine=True, track_running_stats=True)
    (14): ReLU(inplace=True)
  )
  (gru): GRU(512, 256, batch_first=True)
  (Wk): ModuleList(
    (0): Linear(in_features=256, out_features=512, bias=True)
    (1): Linear(in_features=256, out_features=512, bias=True)
    (2): Linear(in_features=256, out_features=512, bias=True)
    (3): Linear(in_features=256, out_features=512, bias=True)
    (4): Linear(in_features=256, out_features=512, bias=True)
    (5): Linear(in_features=256, out_features=512, bias=True)
    (6): Linear(in_features=256, out_features=512, bias=True)
    (7): Linear(in_features=256, out_features=512, bias=True)
    (8): Linear(in_features=256, out_features=512, bias=True)
    (9): Linear(in_features=256, out_features=512, bias=True)
  )
  (softmax): Softmax(dim=None)
  (lsoftmax): LogSoftmax(dim=None)
)

2022-07-13 21:29:41,962 - ===> Model total parameter: 7159296

2022-07-13 21:29:43,197 - Train Epoch: 1 [0/10078 (0%)]	lr:0.00009	Accuracy: 0.0312	Loss: 6.681354
2022-07-13 21:29:44,131 - Train Epoch: 1 [640/10078 (6%)]	lr:0.00097	Accuracy: 0.0312	Loss: 5.049459
2022-07-13 21:29:45,050 - Train Epoch: 1 [1280/10078 (13%)]	lr:0.00186	Accuracy: 0.0469	Loss: 4.050329
…
